artifacts/difficulty_classifier.pt (torch, 661460 bytes, 6 tensors)

classifier.0.weight f4 [256, 512]
-0.0013432615 -0.03224288 0.033249985 -0.03975304 0.03667095 -0.019517915 0.03253935 0.009381972
0.0062372014 -0.038360897 -0.040308833 0.0018114559 0.042824898 0.012624528 -0.024605103 -0.03681111
-0.039188467 0.014792401 -0.021748494 0.00118782 0.006585233 0.0023868978 -0.0066867173 -0.010388903
0.038104367 0.0073103122 -0.02752776 0.018734891 -0.040181555 -0.02712883 -0.016196191 -0.027539715
0.022239003 -0.043373194 -0.0026092157 -2.047792e-05 0.02830429 -0.026256654 0.026686091 -0.0010883957
0.029143061 0.013611797 -0.004558813 0.006211482 -0.015332038 0.04198372 -0.023415545 0.017586559
0.020828146 0.0007665232 0.015844643 -0.0023185834 -0.00096288696 -0.019313846 -0.012853164 -0.020054782
-0.01885649 0.029209923 -0.012132697 -0.0054240897 -0.03360881 0.032446165 0.015828904 -0.038222946
-0.0047779866 0.00075193495 -0.026307272 0.016847864 0.025447328 0.030052897 -0.014441544 0.021306481
-0.033684034 0.01955003 0.0031866133 0.037066642 -0.0011631884 0.029428143 -0.011595845 0.007513523
-0.030671125 -0.03116019 -0.028296545 -0.0020025373 -0.027158739 0.036652815 -0.025676003 -0.033988833
-0.026845414 0.017693467 0.0427544 -0.024758402 -0.0077189803 -0.030128479 -0.024766779 -0.025302075
0.044092152 0.022335667 -0.028708173 -0.008108325 -0.028644558 0.04049101 0.01140454 0.035048958
0.0018570907 0.040416118 0.007597178 -0.0026044585 -0.035105173 0.037190426 -0.043675028 0.012478139
-0.030686703 0.01279432 -0.025311274 0.020973671 0.040674772 0.0070718937 0.0084219165 0.014882725
-0.011037022 0.0019199103 -0.03497905 0.040450048 0.017128482 -0.026275162 -0.03058865 0.022173699
0.041472342 -0.024229227 0.024299894 -0.0020918176 0.0076802894 -0.0010048375 -0.034244247 -0.04379538
-0.00039252266 0.011988651 -0.029455364 -0.00841102 -0.0029085428 0.011715282 0.0428644 -0.0433692
-0.009761974 -0.00050201267 0.03000189 0.0095289275 0.014249049 -0.00010662153 -0.020836137 0.0038017929
-0.041200124 0.043563765 -0.0347024 -0.0025864504 -0.035858057 0.016203303 -0.014632449 -0.004713714
0.021602701 0.0035570897 0.0042938776 -0.005270485 -0.00774689 -0.0075090826 0.0016034469 0.007220067
0.03424288 -0.0048877224 -0.01173206 -0.024741769 0.028760675 0.022294503 0.0173322 0.010772459
-0.025056211 0.0042997114 0.042637307 0.03957579 -0.019217882 0.011270355 0.025781062 0.006915491
0.008949339 -0.04006058 -0.021211471 0.02358364 0.007659763 0.024094764 -0.015180567 -0.026857272
-0.004120771 -0.03059296 -0.008513726 0.04407345 0.00029603764 -0.02589123 0.034346174 0.037787985
-0.006490946 0.009807404 0.019217152 -0.0028318614 -0.0015082359 0.001916606 -0.003096182 0.006822996
0.04288592 0.024196763 -0.022077003 0.0072315186 -0.039800163 0.008851007 -0.03802479 -0.023475284
0.018441562 -0.026851773 -0.03310764 -0.040567193 -0.028451677 0.03505547 0.014855541 -0.031936206
-0.020563552 -0.00645737 0.043686215 0.021231715 -0.010739237 0.009476166 0.03282721 0.010383744
0.025229018 -0.03551483 -0.020661302 0.0021618418 -0.03581024 0.0050244927 -0.027986802 -0.027456753
-0.02555728 0.028241064 -0.019437825 0.0015209913 -0.03357047 -0.042354457 -0.037857078 0.020851757
0.035057846 -0.009044472 -0.04220561 0.036168043 0.0013299026 0.008257132 -0.009166103 0.040486958
00000000: 6010 b0ba 1c11 04bd 2331 083d 15d4 22bd
00000010: 4734 163d 09e4 9fbc fb47 053d d8b6 193c
00000020: 7061 cc3b 5120 1dbd e01a 25bd 606e ed3a
00000030: 2969 2f3d 1cd7 4e3c a490 c9bc 3fc7 16bd
00000040: 1684 20bd d45b 723c e629 b2bc a0b0 9b3a
00000050: f0c8 d73b 806d 1c3b 401c dbbb 3836 2abc
00000060: 5313 1c3d 588b ef3b e681 e1bc ea79 993c
00000070: 6a95 24bd 483d debc e0ad 84bc f89a e1bc
00000080: 922e b63c 17a8 31bd 60ff 2abb 00c8 abb7
00000090: 66de e73c 3218 d7bc ca9c da3c 80a8 8eba
000000a0: 6ebd ee3c 0404 5f3c 1862 95bb b089 cb3b
000000b0: 3a33 7bbc 1ff7 2b3d f5d1 bfbc b011 903c
000000c0: ca9f aa3c 80f0 483a a0cc 813c 60f3 17bb
000000d0: 406a 7cba 1238 9ebc 1496 52bc ed49 a4bc
000000e0: ed78 9abc a649 ef3c 38c8 46bc 90bc b1bb
000000f0: 64a9 09bd 45e6 043d 9eab 813c aa8f 1cbd
00000100: a890 9cbb 801d 453a 5982 d7bc 8804 8a3c
00000110: ea76 d03c 7e31 f63c 3a9c 6cbc ee8a ae3c
00000120: 45f8 09bd 6227 a03c 80d6 503b 31d3 173d
00000130: 2076 98ba 4a13 f13c 80fc 3dbc 0034 f63b
00000140: 0342 fbbc a843 ffbc 28ce e7bc 003d 03bb
00000150: 017c debc 4321 163d 7b56 d2bc e037 0bbd
00000160: eaea dbbc e4f1 903c 3d1f 2f3d 22d2 cabc
00000170: 80ef fcbb 00d0 f6bc b3e3 cabc 4c46 cfbc
00000180: f999 343d 4af9 b63c 672d ebbc c8d8 04bc
00000190: fea7 eabc e7d9 253d 1cda 3a3c 7f8f 0f3d
000001a0: a069 f33a 5f8b 253d c0f1 f83b 90af 2abb
000001b0: 71ca 0fbd fd54 183d 96e4 32bd 1c71 4c3c
000001c0: ae62 fbbc 449f 513c 9759 cfbc fad0 ab3c
000001d0: 979a 263d 58bb e73b 14fc 093c acd6 733c
000001e0: a0d4 34bc 80a5 fb3a 3146 0fbd f3ae 253d
000001f0: 0851 8c3c 023f d7bc 0c95 fabc 9ea5 b53c
00000200: e7de 293d 5f7c c6bc 9210 c73c e016 09bb
00000210: f0aa fb3b c0b4 83ba b243 0cbd c962 33bd
00000220: 80cb cdb9 0c6c 443c 604c f1bc 60ce 09bc
00000230: 409d 3ebb 74f1 3f3c 9592 2f3d e7a3 31bd
00000240: b0f0 1fbc 8099 03ba 86c6 f53c 381f 1c3c
00000250: d874 693c 009a dfb8 8cb0 aabc 8027 793b
00000260: 76c1 28bd eb6f 323d 1b24 0ebd 7081 29bb
00000270: e6df 12bd cabc 843c f0bc 6fbc 8075 9abb
00000280: 26f8 b03c 101e 693b a8b3 8c3b 08b4 acbb
00000290: a0d9 fdbb c00e f6bb c02a d23a 5096 ec3b
000002a0: 4342 0c3d 3029 a0bb d437 40bc 40af cabc
000002b0: 829b eb3c f6a2 b63c 42fc 8d3c f87e 303c
000002c0: af42 cdbc 98e4 8c3b 75a4 2e3d 391a 223d
000002d0: d26e 9dbc 4ca7 383c ce32 d33c 589b e23b
000002e0: 40a0 123c 9016 24bd aec3 adbc 7a32 c13c
000002f0: c0fe fa3b 6262 c53c eab7 78bc c803 dcbc
00000300: 8807 87bb 169e fabc 287d 0bbc 5d86 343d
00000310: 8035 9b39 d819 d4bc 93ae 0c3d 93c7 1a3d
00000320: 00b2 d4bb 3caf 203c 4a6d 9d3c c096 39bb
00000330: 00b0 c5ba a036 fb3a 50e9 4abb 7093 df3b
00000340: 25a9 2f3d 4a38 c63c d5da b4bc 60f6 ec3b
00000350: 7f05 23bd d003 113c e2bf 1bbd 3d4f c0bc
00000360: c212 973c 40f8 dbbc e09b 07bd c929 26bd
00000370: 7e13 e9bc 5396 0f3d a864 733c 8acf 02bd
00000380: e574 a8bc 5898 d3bb 51f0 323d 22ee ad3c
00000390: a0f3 2fbc ec41 1b3c d375 063d 9420 2a3c
000003a0: 16ad ce3c 0078 11bd e441 a9bc b0ad 0d3b
000003b0: c2ad 12bd 80a4 a43b 9444 e5bc fcec e0bc
000003c0: 805d d1bc ce59 e73c 133c 9fbc 005c c73a
000003d0: 3081 09bd de7b 2dbd 0610 1bbd 4ed1 aa3c
000003e0: d198 0f3d 442f 14bc cadf 2cbd f124 143d
000003f0: 2050 ae3a ec48 073c 6c2d 16bc a7d5 253d

classifier.0.bias f4 [256]
0.0063818432 -0.00833964 0.037608366 0.022106383 0.018816706 -0.015644561 0.0038964935 0.03677653
-0.01657465 0.029233988 -0.025894655 -0.0029143505 0.037695643 -0.029607771 -0.010875147 0.039833833
-0.010831267 -0.0011472516 0.013407409 0.034478623 -0.0023254305 0.022894394 -0.030506568 -0.017206825
0.004933458 0.026901226 -0.0016452447 0.011227816 0.03641313 -0.016114548 0.0128402375 0.01761746
0.02581254 0.042557303 0.021127585 -0.027538234 0.020510089 -0.023534104 -0.013087086 -0.0028523318
-0.020558037 -0.0064152963 0.006183129 0.019150186 0.025036681 0.017109718 0.0050410964 -0.007384971
0.03559806 -0.025034722 0.008389536 -0.040070135 -0.023950752 0.025610376 0.040231872 -0.015411491
-0.020575985 -0.028819293 -0.037024956 -0.0047496445 0.019452963 -0.028276447 0.027136441 0.008950569
-0.021799356 -0.010689709 -0.03666329 0.007867269 -0.005760342 0.011606604 -0.030988986 -0.02314725
0.037722837 -0.0351045 0.039293956 -0.0009743944 0.00959941 -0.041082386 0.004713692 0.013898451
-0.012177851 0.025630746 0.009680595 0.031206984 0.038635742 -0.038030613 0.0027712286 -0.0153448135
0.0015048012 0.03546076 0.036096673 0.031605933 0.029512387 0.025698964 0.0043859854 0.044178803
-0.038483128 0.036510658 -0.01667283 -0.020028066 0.038908515 0.03533612 -0.014643148 -0.011837807
-0.0013385266 -0.02760773 -0.026297806 -0.043171633 0.017797276 -0.002422817 0.008833934 0.020883124
-0.029711895 -0.0052935705 -0.0377043 -0.0059731416 0.008632101 0.022329237 0.0042835325 0.03590363
0.026216988 -0.0045017004 0.017075107 0.028246682 0.030731138 0.016980492 -0.025269717 0.025399063
-0.00031284988 -0.02714198 -0.0064540096 -0.032824762 -0.006680228 -0.017825335 0.028026108 -0.03239905
-0.0021457337 0.0043193996 0.038256865 -0.033272393 -0.025961246 -0.018373033 -0.036780313 -0.026040668
-3.3218414e-05 0.005371172 -0.0019649006 0.03156505 0.026512157 0.012577683 -0.027245656 -0.03332803
0.0150995925 0.005293656 -0.031239465 -0.031585313 -0.010197565 -0.002810184 0.015905593 0.016387247
-0.010203041 0.0013466515 0.013996299 0.013726875 -0.029701747 0.021206845 -0.02681089 -0.005719669
-0.038933903 -0.0032962412 0.033168424 0.012878086 -0.030027755 -0.022821818 0.022005577 -0.00413391
-0.020968795 0.018919174 0.015542556 -0.014924584 -0.011532377 -0.023174424 0.03451055 0.023606252
0.038242 -0.007919125 0.016631663 -0.019281615 0.024232674 0.025525983 -0.00090620294 -0.02422111
-0.004743222 0.0036826506 -0.0016210414 -0.020879565 -0.034321897 0.03788233 0.009629544 0.024866443
-0.0023291148 -0.018356938 0.036801886 0.0052823946 0.0118314065 0.009494852 -0.010547992 -0.040342025
0.0419357 -0.013180984 -0.004806027 -0.0049421676 0.0016956478 -0.0066609345 0.01426569 0.024214957
-0.016928809 0.04113624 -0.039178956 -0.03280843 0.04201554 -0.034973174 0.028154928 0.027951967
-0.015889684 -0.036893576 -0.021681909 0.036518175 0.029927012 -0.0046406724 0.039601143 0.00848034
0.034016367 0.016453903 -0.0069860965 0.034345265 -0.04112675 0.001261875 0.007661607 0.010411419
-0.022645343 -0.006331414 -0.032184925 -0.030270856 -0.032124586 -0.024038676 -0.015628463 0.018276423
-0.01732079 0.028400492 0.008177727 -0.02603541 -0.019084899 0.03163339 0.03392635 0.033735882
00000000: c81e d13b fca2 08bc 3b0b 1a3d 7218 b53c
00000010: 7e25 9a3c 0629 80bc 505c 7f3b fda2 163d
00000020: 8fc7 87bc 1e7c ef3c 0721 d4bc b0fe 3ebb
00000030: bf66 1a3d ff8b f2bc ac2d 32bc cd28 233d
00000040: a075 31bc 605f 96ba c0aa 5b3c 7539 0d3d
00000050: 4066 18bb 068d bb3c e9e8 f9bc 54f5 8cbc
00000060: d8a8 a13b f65f dc3c 40a5 d7ba e0f4 373c
00000070: ef25 153d a802 84bc dc5f 523c 7e52 903c
00000080: d274 d33c 9150 2e3d c213 ad3c dd97 e1bc
00000090: c604 a83c 98ca c0bc 386b 56bc 30ee 3abb
000000a0: 5469 a8bc 6837 d2bb d89b ca3b dae0 9c3c
000000b0: ba19 cd3c ae29 8c3c c82f a53b a0fd f1bb
000000c0: 45cf 113d 9e15 cdbc 4474 093c 9520 24bd
000000d0: 5e34 c4bc dacc d13c 2dca 243d 7a80 7cbc
000000e0: f88e a8bc 7016 ecbc 7ba7 17bd e8a2 9bbb
000000f0: d25b 9f3c 02a4 e7bc 3e4d de3c 68a5 123c
00000100: 9094 b2bc e423 2fbc 3f2c 16bd b8e5 003c
00000110: 40c1 bcbb a029 3e3c 9ddc fdbc 4d9f bdbc
00000120: 4383 1a3d bcc9 0fbd b3f2 203d 806e 7fba
00000130: d846 1d3c 0146 28bd 5075 9a3b 54b6 633c
00000140: 9c85 47bc 92f7 d13c 5c9b 1e3c caa5 ff3c
00000150: 8340 1e3d fdc5 1bbd 809d 353b d068 7bbc
00000160: c03c c53a 4d3f 113d 1bda 133d 3975 013d
00000170: f6c3 f13c a286 d23c 50b8 8f3b d5f4 343d
00000180: 7ca0 1dbd 338c 153d 7595 88bc e611 a4bc
00000190: 895e 1f3d 9bbc 103d d0e9 6fbc 5cf3 41bc
000001a0: 8071 afba 9b29 e2bc 7f6e d7bc bdd4 30bd
000001b0: 98cb 913c 20c8 1ebb 34bc 103c 1613 ab3c
000001c0: 5c66 f3bc b075 adbb d36f 1abd 58ba c3bb
000001d0: a86d 0d3c ceeb b63c e05c 8c3b af0f 133d
000001e0: 02c5 d63c 0083 93bb 18e1 8b3c 9665 e73c
000001f0: debf fb3c ac1a 8b3c 7002 cfbc b211 d03c
00000200: 0006 a4b9 dc58 debc 287c d3bb 4273 06bd
00000210: d0e5 dabb 7006 92bc 0297 e53c deb4 04bd
00000220: 709f 0cbb c089 8d3b 3bb3 1c3d a248 08bd
00000230: aeac d4bc 0b83 96bc f4a6 16bd 3d53 d5bc
00000240: 0054 0bb8 a800 b03b 90c5 00bb 5b4a 013d
00000250: 0630 d93c a012 4e3c 4832 dfbc f982 08bd
00000260: 4864 773c 6876 ad3b e8e9 ffbc 9a5f 01bd
00000270: b013 27bc 102b 38bb 724c 823c 8c3e 863c
00000280: a82a 27bc 2082 b03a bc50 653c b0e6 603c
00000290: 1451 f3bc fab9 ad3c 83a2 dbbc 106c bbbb
000002a0: 2879 1fbd c005 58bb 9ddb 073d 9cfe 523c
000002b0: c4fc f5bc d2f4 babc 0a45 b43c c075 87bb
000002c0: c0c6 abbc 62fc 9a3c 34a6 7e3c 3e86 74bc
000002d0: 4cf2 3cbc 4ad8 bdbc ef5a 0d3d e661 c13c
000002e0: a5a3 1c3d 38bf 01bc 203f 883c 7af4 9dbc
000002f0: 9a83 c63c de1b d13c 408e 6dba 596b c6bc
00000300: 086d 9bbb a058 713b 2079 d4ba 9f0b abbc
00000310: 1e95 0cbd 812a 1b3d 3cc5 1d3c b6b4 cb3c
00000320: 10a4 18bb 4a61 96bc 93bd 163d f017 ad3b
00000330: 84d8 413c 4c90 1b3c 7cd1 2cbc ae3d 25bd
00000340: c5c4 2b3d 0ef5 57bc e07b 9dbb e8f1 a1bb
00000350: 8040 de3a f843 dabb a4ba 693c 725e c63c
00000360: 49ae 8abc 797e 283d 1d7a 20bd 2262 06bd
00000370: 7d18 2c3d 0840 0fbd 2aa5 e63c 86fb e43c
00000380: 152b 82bc b81d 17bd 429e b1bc 1594 153d
00000390: 7e29 f53c c810 98bb cf34 223d 20f1 0a3c
000003a0: bf54 0b3d 56ca 863c a0eb e4bb 9fad 0c3d
000003b0: 8674 28bd 8065 a53a 380e fb3b a894 2a3c
000003c0: ba82 b9bc c077 cfbb 57d4 03bd 96fa f7bc
000003d0: 1295 03bd c2ec c4bc 4307 80bc 70b8 953c
000003e0: 54e4 8dbc 26a8 e83c e0fb 053c 3648 d5bc
000003f0: ef57 9cbc 0392 013d 5bf6 0a3d a32e 0a3d

classifier.3.weight f4 [128, 256]
0.027139172 -0.007546529 0.024933085 -0.0011344254 0.011500701 -0.047009684 0.0024363324 0.001746349
-0.05846332 -0.02430328 -0.03470376 0.06167137 -0.049978167 0.051474854 -0.032222666 -0.024378486
-0.041813552 0.03204912 -0.055857226 -0.022826038 0.0072135255 0.0103422105 0.036184333 0.035178803
0.026399314 -0.052399218 0.043779664 -0.040996417 -0.024320662 -0.051722206 0.01799088 0.0035957396
0.00367447 -0.050656974 -0.052348293 -0.05918032 0.026715308 -0.025925696 -0.020424247 -0.05759129
-0.011244431 -0.043160588 -0.06097327 -0.014114194 0.015884623 0.012275614 -0.0407494 -0.04359556
-0.029639803 -0.018310256 -0.012053609 0.0040578023 0.033266746 -0.04162237 -0.05263643 -0.062343225
0.026009902 -0.051179066 -0.0066837 -0.023883864 0.024770252 0.01060608 0.0052486956 -0.044615187
0.023554876 0.029418424 -0.032441616 -0.042043626 0.016357452 0.045757458 0.016572297 -0.051515937
0.00027948618 0.05200112 0.05704002 -0.012008153 0.00012472272 -0.01950249 -0.027684592 0.061049826
0.032560088 -0.037429653 -0.022002518 -0.035382442 0.022863835 0.04396709 -0.050100796 -0.05909326
0.020332456 -0.05333449 -0.04450704 -0.013604298 -0.027633213 -0.016736843 0.0306065 0.01451616
0.012454078 -0.06215261 0.0189671 -0.05130609 -0.036673553 -0.007840157 0.0031349733 -0.014286622
-0.054167695 -0.05052997 0.019353926 0.024618305 -0.026357733 0.0011673868 -0.019330032 0.04660088
-0.028983675 -0.012328751 -0.013486244 0.05119033 -0.0053531677 0.04071925 0.035699494 0.013523705
-0.051377133 0.015452839 -0.06027779 -0.047095552 0.0467897 0.010531403 -0.0034281984 0.013991676
0.039389998 -0.020356342 -0.0018873587 -0.06126783 -0.04812303 0.034360394 -0.019131921 0.016565897
0.021612264 -0.02431377 0.031943455 -0.01106251 -0.04661181 -0.006079562 -0.042721637 0.05094382
0.053618133 0.041390233 0.043071292 -0.01733955 -0.029841617 -0.054006778 -0.062237322 0.012174755
0.004500538 0.05646179 0.039159738 0.011850186 0.0018101409 -0.04578749 0.014785036 0.044186816
0.0120186135 -0.0028885826 0.051127568 -0.029432073 -0.03210701 0.025126703 0.0010113567 0.0034412667
0.016037256 -0.015526578 0.0059249997 -0.017365575 0.032053508 0.018170506 0.031890936 0.044588253
-0.037178412 0.042718425 -0.045304865 0.01709856 -0.013585873 0.046654627 -0.044227175 0.056704223
0.06183336 0.031905353 0.0472169 0.018483184 0.011035986 -0.03583689 -0.051218472 0.044094697
0.057335325 -0.016420595 0.0012465194 -0.012787901 -0.03884814 0.047949217 -0.03652987 -0.037841693
0.002910152 0.023632951 0.009518623 -0.033291876 -0.030456468 -0.013218977 -0.052344076 0.013227619
-0.038876466 -0.030210413 0.01646217 0.021249868 -0.0014829114 -0.024534576 -0.057231657 -0.022393666
0.009263381 -0.032424107 -0.02308771 0.060950927 0.03665632 0.025543429 -0.0068197697 -0.006852187
0.060433567 0.0039467067 -0.015537076 -0.012886211 -0.0151169 -0.061324075 0.0013400018 0.04956036
-0.035255484 -0.009775296 0.042161092 0.053896047 0.009187967 0.011981577 -0.015588112 0.028506659
-0.00024016947 -0.0049955472 0.0602957 0.017525747 -0.061591767 0.005886644 -0.029724933 0.046346605
0.017017141 0.006602615 0.057312638 -0.059163637 -0.010229558 -0.033067442 -0.039403155 0.037098683
00000000: f852 de3c e048 f7bb 7840 cc3c 00b1 94ba
00000010: 706d 3c3c 3a8d 40bd e0aa 1f3b c0e5 e43a
00000020: 3c77 6fbd ac17 c7bc 8825 0ebd 1e9b 7c3d
00000030: e8b5 4cbd 4cd7 523d eafb 03bd 64b5 c7bc
00000040: b044 2bbd f045 033d 8cca 64bd acfd babc
00000050: 705f ec3b 6072 293c 0636 143d a617 103d
00000060: 6043 d83c 90a0 56bd 4e52 333d dceb 27bd
00000070: 203c c7bc aada 53bd 9c61 933c 80a6 6b3b
00000080: 60cf 703b b07d 4fbd 2a6b 56bd 1067 72bd
00000090: 10da da3c 2062 d4bc c050 a7bc d8e4 6bbd
000000a0: 903a 38bc 28c9 30bd 1cbf 79bd 383f 67bc
000000b0: 7820 823c a81f 493c d8e8 26bd 4291 32bd
000000c0: 2ccf f2bc 64ff 95bc 807c 45bc 50f7 843b
000000d0: b642 083d 387c 2abd 4c99 57bd 9c5b 7fbd
000000e0: b812 d53c 24a1 51bd f002 dbbb 18a8 c3bc
000000f0: fcea ca3c 20c5 2d3c 40fd ab3b 6abe 36bd
00000100: 28f6 c03c e8fe f03c 80e1 04bd f035 2cbd
00000110: 1000 863c 2c6c 3b3d a0c2 873c 6002 53bd
00000120: 0088 9239 20ff 543d cca2 693d d8bd 44bc
00000130: 00c8 0239 b0c3 9fbc ccca e2bc 620f 7a3d
00000140: ba5d 053d d64f 19bd a03e b4bc 2eed 10bd
00000150: f04c bb3c d616 343d 7e36 4dbd c60b 72bd
00000160: 4090 a63c 4475 5abd 044d 36bd 90e4 5ebc
00000170: 0c5f e2bc b41b 89bc 7cba fa3c 30d5 6d3c
00000180: 300c 4c3c bc93 7ebd e460 9b3c 5626 52bd
00000190: 0237 16bd 0074 00bc 2074 4d3b 7012 6abc
000001a0: f2de 5dbd 84f8 4ebd 208c 9e3c 54ac c93c
000001b0: 2cec d7bc 0003 993a 045a 9ebc 90e0 3e3d
000001c0: 2c6f edbc 88fe 49bc 68f5 5cbc f4ac 513d
000001d0: a069 afbb 3ac9 263d a239 123d 8892 5d3c
000001e0: d470 52bd e82d 7d3c d8e5 76bd 44e7 40bd
000001f0: 8ea6 3f3d e88b 2c3c a0ab 60bb 583d 653c
00000200: 6857 213d 58c2 a6bc 4061 f7ba faf3 7abd
00000210: a81c 45bd 7cbd 0c3d 8cba 9cbc 34b5 873c
00000220: 340c b13c ac2d c7bc 24d7 023d 883f 35bc
00000230: 06ec 3ebd 1037 c7bb e2fc 2ebd 78aa 503d
00000240: b09e 5b3d ce88 293d 866b 303d ac0b 8ebc
00000250: 6876 f4bc 3636 5dbd 90ec 7ebd a078 473c
00000260: 4079 933b 7a44 673d f665 203d 4827 423c
00000270: 4042 ed3a aa8b 3bbd f03c 723c 3cfd 343d
00000280: b8e9 443c 604e 3dbb 246b 513d 881b f1bc
00000290: a482 03bd 84d6 cd3c 808f 843a e086 613b
000002a0: 9060 833c 3063 7ebc 8026 c23b 4042 8ebc
000002b0: 8a4a 033d 50da 943c 12a0 023d 2ca2 363d
000002c0: 6448 18bd 84f9 2e3d 9891 39bd 4812 8c3c
000002d0: 4897 5ebc ec18 3f3d 8e27 35bd b042 683d
000002e0: fa44 7d3d 30af 023d 8266 413d 0c6a 973c
000002f0: 48d0 343c b4c9 12bd 76ca 51bd a49c 343d
00000300: 72d8 6a3d 7c84 86bc 4062 a33a 5884 51bc
00000310: 3a1f 1fbd 6666 443d 58a0 15bd e4ff 1abd
00000320: 40b8 3e3b e499 c13c 00f4 1b3c 105d 08bd
00000330: d87f f9bc 6894 58bc be66 56bd a8b8 583c
00000340: ee3c 1fbd d47b f7bc acdb 863c 3414 ae3c
00000350: 405e c2ba bcfc c8bc be6b 6abd ec72 b7bc
00000360: 70c5 173c 24cf 04bd 7022 bdbc aea7 793d
00000370: f024 163d 7440 d13c 6078 dfbb 5088 e0bb
00000380: 3089 773d 6053 813b 388f 7ebc b020 53bc
00000390: e0ac 77bc f42e 7bbd 00a3 af3a ceff 4a3d
000003a0: 0e68 10bd 9028 20bc 1cb1 2c3d 1ac2 5c3d
000003b0: 2089 163c 604e 443c 4865 7fbc cc86 e93c
000003c0: 00d6 7bb9 b0b1 a3bb a0f8 763d 2892 8f3c
000003d0: a647 7cbd c0e4 c03b b481 f3bc f0d5 3d3d
000003e0: 8867 8b3c c05a d83b a8c0 6a3d 9255 72bd
000003f0: e099 27bc ba71 07bd 3465 21bd caf4 173d

classifier.3.bias f4 [128]
0.039019927 0.023376502 -0.027476467 0.05948487 0.034990154 -0.048235103 0.05915603 0.029450268
-0.058235116 0.03272021 -0.061971962 0.053600766 0.044476055 -0.009679869 -0.0482188 -0.027160026
0.027318 -0.0019696802 0.051678546 0.05891724 -0.060262747 -0.022742465 -0.047799237 0.005333014
-0.014730558 -0.0623319 0.029986016 -0.03290876 -0.0018306375 -0.04482819 0.008423492 -0.028315328
0.025321156 0.017176919 0.018561654 -0.0005147606 -0.018697262 0.0015667528 -0.041268095 -0.03028135
-0.009809144 0.0059428513 0.020178288 0.0034341514 0.0074661 -0.0453517 0.00023047626 -0.055454418
-0.015815288 -0.011260353 -0.018841945 -0.049528673 -0.05028341 -0.045767292 -0.052129313 0.020974055
-0.050723083 0.0071939304 0.06070602 0.027407259 -0.01723338 0.03758698 0.055357218 -0.03763172
0.024250522 -0.019914277 -0.054373085 -0.009248696 -0.030352011 -0.021564431 0.046843722 0.039669335
0.0026432723 0.053467512 -0.01378005 0.039961286 0.05860822 -0.05800213 0.007458292 -0.059147753
0.035247706 0.034777462 -0.0049833357 -0.061335012 0.022669949 0.010286577 0.04428138 -0.051411755
0.019435853 -0.002993524 -0.00915046 0.00326439 0.045678772 0.040088885 0.023099914 -0.043326646
-0.053783022 -0.0064077973 -0.0427244 0.0124767795 0.03149587 -0.04076097 -0.056408122 -0.009762384
0.044101 -0.00800056 0.004522644 -0.055839248 -0.026403382 -0.04304696 0.007489793 -0.004149966
0.0061153024 -0.056969486 0.059630103 0.030016027 0.044704616 0.054959573 -0.056514956 0.050394565
-0.046943016 0.0120138675 -0.05670105 -0.011928134 0.024838343 0.0002752617 0.032863475 0.055976965
00000000: 5cd3 1f3d 1480 bf3c 5416 e1bc 68a6 733d
00000010: d651 0f3d 2c92 45bd 984d 723d b041 f13c
00000020: f287 6ebd a005 063d 50d6 7dbd 7a8c 5b3d
00000030: 862c 363d 5098 1ebc 1481 45bd b47e debc
00000040: 00ca df3c c015 01bb e2ac 533d 3453 713d
00000050: 12d6 76bd 684e babc 22c9 43bd 90c0 ae3b
00000060: 7058 71bc bc4f 7fbd 3ca5 f53c 56cb 06bd
00000070: 00f2 efba c49d 37bd b002 0a3c 8cf5 e7bc
00000080: 506e cf3c 9cb6 8c3c 9c0e 983c 00f1 06ba
00000090: 002b 99bc 805b cd3a bc08 29bd 9810 f8bc
000000a0: 88b6 20bc 40bc c23b f04c a53c 800f 613b
000000b0: 30a6 f43b b4c2 39bd 00ac 7139 2c24 63bd
000000c0: 108f 81bc 587d 38bc 6c5a 9abc 94de 4abd
000000d0: faf5 4dbd 7c76 3bbd 8c85 55bd c8d1 ab3c
000000e0: 02c3 4fbd 10bb eb3b e0a6 783d 3085 e03c
000000f0: 042d 8dbc cef4 193d 40be 623d b823 1abd
00000100: 08a9 c63c 4423 a3bc 50b6 5ebd d887 17bc
00000110: c8a4 f8bc e4a7 b0bc 34df 3f3d 507c 223d
00000120: c03a 2d3b c000 5b3d b8c5 61bc 72ae 233d
00000130: 2c0f 703d a493 6dbd b064 f43b ea44 72bd
00000140: e65f 103d d072 0e3d 404b a3bb 6c3a 7bbd
00000150: 54b6 b93c 0889 283c 6460 353d 2295 52bd
00000160: f037 9f3c 002f 44bb d0eb 15bc 60ef 553b
00000170: aa19 3b3d 3e34 243d 083c bd3c 4877 31bd
00000180: 964b 5cbd 80f8 d1bb c8ff 2ebd 686b 4c3c
00000190: d001 013d faf4 26bd 340c 67bd 68f2 1fbc
000001a0: 40a3 343d c814 03bc b032 943b b2b7 64bd
000001b0: e84b d8bc 0252 30bd f06c f53b 70fc 87bb
000001c0: e062 c83b d658 69bd b23e 743d 2ce4 f53c
000001d0: 301c 373d 4a1d 613d 3a7c 67bd 886a 4e3d
000001e0: 5247 40bd d0d5 443c 5c3f 68bd 386e 43bc
000001f0: c879 cb3c 0051 9039 da9b 063d 1a48 653d

classifier.6.weight f4 [3, 128]
0.015446849 -0.019308269 -0.08836782 0.051756762 -0.05991637 -0.008845605 0.027268901 0.011586189
0.011360273 0.037168585 0.028046422 -0.08704937 0.022256687 0.04842604 -0.034459822 -0.031509224
0.002810903 -0.0760075 -0.04303664 0.03128489 -0.052832276 -0.055541422 0.065388374 -0.00050150603
-0.048756495 0.0029880852 -0.029239904 -0.019978762 -0.028658193 -0.054234605 -0.019876644 -0.036517706
-0.07932614 0.011938937 -0.0023325533 0.030084938 -0.022033393 -0.084867366 -0.03256035 0.033782624
-0.04750761 0.07065693 -0.07428391 0.072764985 -0.03865809 -0.07657123 -0.06241879 -0.06235914
-0.00095792115 -0.01765205 0.06687059 -0.0029027835 0.038299106 0.0013821721 0.01355841 -0.03450082
-0.08795188 0.015151538 0.019838162 0.027936228 0.07668369 -0.052376688 0.0670756 0.009062238
0.054159768 -0.078483865 -0.01373823 -0.015654795 -0.013016045 -0.066344954 0.022043385 0.000898242
-0.0070322454 -0.050130516 -0.0074243173 0.037778355 -0.004545018 -0.014029987 0.027134292 -0.011346191
0.01449699 -0.0018538088 0.032568485 0.00886938 0.0870809 -0.015239626 0.06019848 -0.03457072
0.0046508834 -0.07072085 0.040949322 -0.077173494 0.02102346 -0.04239382 -0.0753552 0.004602626
-0.0616477 0.033988513 -0.018906653 -0.08577232 0.07377093 -0.054165326 -0.03701919 -0.0031321198
-0.018134482 -0.016824074 0.049068086 -0.040193953 0.06517727 -0.052006975 -0.022299938 -0.032117974
-0.009779282 0.017472975 0.027529888 0.064062886 -0.030298546 0.06454467 0.065832354 -0.040264864
-0.033251103 0.029781602 0.038973086 0.04028245 0.07380121 -0.055627316 -0.046312936 0.053757988
0.054880016 -0.044488728 0.06557173 0.036790825 -0.040489506 -0.054389898 0.07352135 0.06040605
0.047208928 0.03872802 -0.053118493 0.05118356 -0.007733524 -0.0046710297 -0.020422041 0.0012494624
-0.07756461 0.056930132 -0.008059271 -0.008579679 -0.08244796 -0.0875672 -0.022453025 -0.05799701
-0.02883305 0.054794647 -0.027929261 0.021706045 -0.02917935 0.07702839 0.050376035 0.026930891
-0.04484585 -0.009687282 0.014784999 0.083333544 0.06132818 0.084929 -0.07339561 -0.02406881
0.034641728 0.08657924 0.0012988895 -0.040873203 0.08442163 0.005918011 0.053290077 0.04395873
-0.049522925 0.06981558 0.05809506 0.04080967 -0.054389454 0.0006288439 0.056566305 0.06995759
-0.005363047 -0.07080029 0.052713625 -0.04336452 0.0059823543 -0.059187576 -0.027733944 -0.04410166
0.02746547 0.073149405 0.0461263 0.076408066 -0.04869967 -0.03637044 -0.051318727 -0.0120329335
0.01798129 -0.059963994 0.013019972 -0.056162994 0.0386767 -0.082187004 0.06783838 -0.02698104
0.03409127 -0.081103116 0.02688478 0.00062197447 -0.037131667 0.025389522 -0.035036832 -0.055883527
-0.009951472 0.034575 0.060567953 0.08648322 -0.056360357 -0.079589546 0.0027834922 0.025973946
0.0031085014 0.022301592 -0.07858652 -0.08794673 -0.03500203 -0.025192164 0.040611766 0.055739485
-0.026683424 -0.007449046 0.084453724 -0.033450026 0.0026389211 -0.034087706 0.01766979 0.08194309
-0.027098283 0.02188319 0.034514263 0.06379103 -0.04835329 0.037135087 -0.081438385 0.004205279
-0.08131247 0.026194237 -0.079702705 -0.035945192 -0.055905234 0.011958934 -0.083106294 0.08645225
00000000: c814 7d3c 602c 9ebc 30fa b4bd e6fe 533d
00000010: de6a 75bd 28ed 10bc 0863 df3c 00d4 3d3c
00000020: 7020 3a3c 163e 183d 9cc1 e53c f146 b2bd
00000030: a853 b63c 625a 463d be25 0dbd d10f 01bd
00000040: 2037 383b d2a9 9bbd 3047 30bd 9624 003d
00000050: a866 58bd 677f 63bd 57ea 853d 8077 03ba
00000060: e4b4 47bd c0d3 433b 8688 efbc 80aa a3bc
00000070: 96c4 eabc 1b25 5ebd 58d4 a2bc 9793 15bd
00000080: be75 a2bd 889b 433c c0dd 18bb b074 f63c
00000090: 607f b4bc f1ce adbd 005e 05bd a65f 0a3d
000000a0: 5797 42bd 95b4 903d 2a22 98bd cf05 953d
000000b0: f257 1ebd 61d1 9cbd d8aa 7fbd 4c6c 7fbd
000000c0: 001d 7bba 089b 90bc 73f3 883d a03c 3ebb
000000d0: 86df 1c3d 002a b53a 1824 5e3c bb50 0dbd
000000e0: 1e20 b4bd 283e 783c a483 a23c 84da e43c
000000f0: 570c 9d3d f088 56bd ef5e 893d c879 143c
00000100: a2d6 5d3d 26bc a0bd 5016 61bc 7c3e 80bc
00000110: 4041 55bc dddf 87bd 5494 b43c 0078 6b3a
00000120: c06e e6bb a855 4dbd b047 f3bb 7abd 1a3d
00000130: 60ee 94bb 08de 65bc bc48 de3c 60e5 39bc
00000140: c884 6d3c 80fb f2ba 8866 053d e050 113c
00000150: 7957 b23d a0af 79bc ae92 763d 079a 0dbd
00000160: 7066 983b 18d6 90bd 7aba 273d 230d 9ebd
00000170: 6439 ac3c 24a5 2dbd d453 9abd a0d1 963b
00000180: 4c82 7cbd 8a37 0b3d 20e2 9abc 66a9 afbd
00000190: 3715 973d 76dc 5dbd 6fa1 17bd 4044 4dbb
000001a0: c48e 94bc a4d2 89bc 9efb 483d 6aa2 24bd
000001b0: a97b 853d 4405 55bd 5cae b6bc 238e 03bd
000001c0: 4839 20bc 7c23 8f3c 5c86 e13c 6733 833d
000001d0: a834 f8bc ff2f 843d 1dd3 863d c5ec 24bd
000001e0: 4f32 08bd 8cf8 f33c 3ea2 1f3d 36ff 243d
000001f0: 1725 973d 78d9 63bd a2b2 3dbd 5631 5c3d
00000200: dec9 603d d039 36bd 794a 863d fab1 163d
00000210: 53d8 25bd f1c7 5ebd 5d92 963d 566c 773d
00000220: 265e 413d 46a1 1e3d c792 59bd daa5 513d
00000230: 8069 fdbb 700f 99bb 204c a7bc 00c5 a33a
00000240: 32da 9ebd 922f 693d 080b 04bc c891 0cbc
00000250: 7ada a8bd 6f56 b3bd 68ef b7bc 468e 6dbd
00000260: 4a33 ecbc 5a70 603d e8cb e4bc e0d0 b13c
00000270: 8809 efbc 0fc1 9d3d 1a57 4e3d 2c9e dc3c
00000280: 48b0 37bd 68b7 1ebc c83c 723c c7aa aa3d
00000290: 4233 7b3d 41ef ad3d 7050 96bd f42b c5bc
000002a0: 7ce4 0d3d 7550 b13d 803f aa3a a96a 27bd
000002b0: 3fe5 ac3d e0eb c13b b246 5a3d 120e 343d
000002c0: 8dd8 4abd 79fb 8e3d 16f5 6d3d 0a28 273d
000002d0: 7ac7 5ebd 00d9 243a 12b2 673d ed45 8f3d
000002e0: 80bc afbb beff 90bd 3eea 573d ff9e 31bd
000002f0: a007 c43b ac6e 72bd 4c32 e3bc f1a3 34bd
00000300: 44ff e03c 5bcf 953d eeee 3c3d d57b 9c3d
00000310: 4e79 47bd 2cf9 14bd 9633 52bd c825 45bc
00000320: 804d 933c ce9c 75bd b851 553c 2b0b 66bd
00000330: 766b 1e3d a951 a8bd d9ee 8a3d 5807 ddbc
00000340: 4aa3 0b3d 6419 a6bd 783d dc3c 000c 233a
00000350: 6017 18bd b0fd cf3c c882 0fbd 20e6 64bd
00000360: 800b 23bc 849e 0d3d 1a16 783d 1d1e b13d
00000370: 1eda 66bd d8ff a2bd 406b 363b 50c7 d43c
00000380: 00b8 4b3b d4b1 b63c f8f1 a0bd 6a1d b4bd
00000390: 4a5e 0fbd cc5f cebc 8658 263d 164f 643d
000003a0: 3297 dabc 2017 f4bb 13f6 ac3d e502 09bd
000003b0: c0f1 2c3b 8d9f 0bbd 3cc0 903c c7d1 a73d
000003c0: 38fd ddbc 6044 b33c d45e 0d3d dfa4 823d
000003d0: 190e 46bd f61a 183d 2bc9 a6bd 70cc 893b
000003e0: 2787 a6bd 4c95 d63c 2c3b a3bd 443b 13bd
000003f0: e3fc 64bd 68ef 433c a233 aabd e10d b13d

classifier.6.bias f4 [3]
-0.04437903 0.06490008 0.016512133
00000000: c9c6 35bd 55ea 843d 7444 873c
